nohup: ignoring input

                   from  n    params  module                                       arguments                     
  0                  -1  1       464  ultralytics.nn.modules.Conv                  [3, 16, 3, 2]                 
  1                  -1  1      4672  ultralytics.nn.modules.Conv                  [16, 32, 3, 2]                
  2                  -1  1      7360  ultralytics.nn.modules.C2f                   [32, 32, 1, True]             
  3                  -1  1     18560  ultralytics.nn.modules.Conv                  [32, 64, 3, 2]                
  4                  -1  2     49664  ultralytics.nn.modules.C2f                   [64, 64, 2, True]             
  5                  -1  1     73984  ultralytics.nn.modules.Conv                  [64, 128, 3, 2]               
  6                  -1  2    197632  ultralytics.nn.modules.C2f                   [128, 128, 2, True]           
  7                  -1  1    295424  ultralytics.nn.modules.Conv                  [128, 256, 3, 2]              
  8                  -1  1    460288  ultralytics.nn.modules.C2f                   [256, 256, 1, True]           
  9                  -1  1    164608  ultralytics.nn.modules.SPPF                  [256, 256, 5]                 
 10                  -1  1         0  torch.nn.modules.upsampling.Upsample         [None, 2, 'nearest']          
 11             [-1, 6]  1         0  ultralytics.nn.modules.Concat                [1]                           
 12                  -1  1    148224  ultralytics.nn.modules.C2f                   [384, 128, 1]                 
 13                  -1  1         0  torch.nn.modules.upsampling.Upsample         [None, 2, 'nearest']          
 14             [-1, 4]  1         0  ultralytics.nn.modules.Concat                [1]                           
 15                  -1  1     37248  ultralytics.nn.modules.C2f                   [192, 64, 1]                  
 16                  -1  1     36992  ultralytics.nn.modules.Conv                  [64, 64, 3, 2]                
 17            [-1, 12]  1         0  ultralytics.nn.modules.Concat                [1]                           
 18                  -1  1    123648  ultralytics.nn.modules.C2f                   [192, 128, 1]                 
 19                  -1  1    147712  ultralytics.nn.modules.Conv                  [128, 128, 3, 2]              
 20             [-1, 9]  1         0  ultralytics.nn.modules.Concat                [1]                           
 21                  -1  1    493056  ultralytics.nn.modules.C2f                   [384, 256, 1]                 
 22        [15, 18, 21]  1    897664  ultralytics.nn.modules.Detect                [80, [64, 128, 256]]          
YOLOv8n summary: 225 layers, 3157200 parameters, 3157184 gradients, 8.9 GFLOPs

/home/training_yolov8_2_4_wheeler/env/lib/python3.10/site-packages/ultralytics/nn/tasks.py:332: FutureWarning: You are using `torch.load` with `weights_only=False` (the current default value), which uses the default pickle module implicitly. It is possible to construct malicious pickle dat
…
 flipud=0.0, fliplr=0.5, mosaic=1.0, mixup=0.0, copy_paste=0.0, cfg=None, v5loader=False, save_dir=/home/training_yolov8_2_4_wheeler/runs/detect/train3
/home/training_yolov8_2_4_wheeler/env/lib/python3.10/site-packages/ultralytics/yolo/engine/trainer.py:113: FutureWarning: `torch.cuda.amp.GradScaler(args...)` is deprecated. Please use `torch.amp.GradScaler('cuda', args...)` instead.
  self.scaler = amp.GradScaler(enabled=self.amp)

                   from  n    params  module                                       arguments                     
  0                  -1  1       464  ultralytics.nn.modules.Conv                  [3, 16, 3, 2]                 
  1                  -1  1      4672  ultralytics.nn.modules.Conv                  [16, 32, 3, 2]                
  2                  -1  1      7360  ultralytics.nn.modules.C2f                   [32, 32, 1, True]             
  3                  -1  1     18560  ultralytics.nn.modules.Conv                  [32, 64, 3, 2]                
  4                  -1  2     49664  ultralytics.nn.modules.C2f                   [64, 64, 2, True]             
  5                  -1  1     73984  ultralytics.nn.modules.Conv                  [64, 128, 3, 2]               
  6                  -1  2    197632  ultralytics.nn.modules.C2f                   [128, 128, 2, True]           
  7                  -1  1    295424  ultralytics.nn.modules.Conv                  [128, 256, 3, 2]              
  8                  -1  1    460288  ultralytics.nn.modules.C2f                   [256, 256, 1, True]           
  9                  -1  1    164608  ultralytics.nn.modules.SPPF                  [256, 256, 5]                 
 10                  -1  1         0  torch.nn.modules.upsampling.Upsample         [None, 2, 'nearest']          
 11             [-1, 6]  1         0  ultralytics.nn.modules.Concat                [1]                           
 12                  -1  1    148224  ultralytics.nn.modules.C2f                   [384, 128, 1]                 
 13                  -1  1         0  torch.nn.modules.upsampling.Upsample         [None, 2, 'nearest']          
 14             [-1, 4]  1         0  ultralytics.nn.modules.Concat                [1]                           
 15                  -1  1     37248  ultralytics.nn.modules.C2f                   [192, 64, 1]                  
 16                  -1  1     36992  ultralytics.nn.modules.Conv                  [64, 64, 3, 2]                
 17            [-1, 12]  1         0  ultralytics.nn.modules.Concat                [1]                           
 18                  -1  1    123648  ultralytics.nn.modules.C2f                   [192, 128, 1]                 
 19                  -1  1    147712  ultralytics.nn.modules.Conv                  [128, 128, 3, 2]              
 20             [-1, 9]  1         0  ultralytics.nn.modules.Concat                [1]                           
 21                  -1  1    493056  ultralytics.nn.modules.C2f                   [384, 256, 1]                 
 22        [15, 18, 21]  1    751507  ultralytics.nn.modules.Detect                [1, [64, 128, 256]]           
YOLOv8n summary: 225 layers, 3011043 parameters, 3011027 gradients, 8.2 GFLOPs

Transferred 355/355 items from pretrained weights
[34m[1moptimizer:[0m SGD(lr=0.01) with parameter groups 57 weight(decay=0.0), 64 weight(decay=0.0005), 63 bias
[34m[1mtrain: [0mScanning /home/training_yolov8_2_4_wheeler/images_dataset/labels.cache... 1682 images, 2 backgrounds, 0 corrupt: 100%|â–ˆâ–ˆâ–ˆâ–ˆâ–ˆâ–ˆâ–ˆâ–ˆâ–ˆâ–ˆ| 1682/1682 [00:00<?, ?it/s][34m[1mtrain: [0mScanning /home/training_yolov8_2_4_wheeler/images_dataset/labels.cache... 1682 images, 2 backgrounds, 0 corrupt: 100%|â–ˆâ–ˆâ–ˆâ–ˆâ–ˆâ–ˆâ–ˆâ–ˆâ–ˆâ–ˆ| 1682/1682 [00:00<?, ?it/s]
…
